mnist/part2-mnist/mnist_model_fully_connected.pt (torch, 905151 bytes, 8 tensors)

weight f4 [32, 1, 3, 3]
0.29009786 -0.08813971 -0.526461 0.12643929 0.5560177 0.4038515 -0.41106498 0.43034458
0.22385101 -0.4323754 0.346067 0.14402883 -0.113616094 0.20890996 0.28895685 -0.21008037
0.34784597 0.38730383 -0.3092251 -0.011921508 -0.08983505 -0.3153421 -0.25355974 -0.044039853
-0.24174888 0.16841853 0.24812342 -0.14742984 -0.20121601 0.048181884 0.070184946 0.21856543
0.015505045 -0.22622772 0.022668224 0.2933022 0.22174479 0.3651167 -0.028659277 -0.06357176
-0.023103638 -0.4305328 0.37520012 0.013360792 0.008451023 0.08599898 -0.31410453 -0.12924673
0.15070201 -0.43925503 -0.33268297 0.5062289 0.3772432 0.30697167 -0.19819017 -0.41138828
-0.20631206 -0.23488715 -0.0762965 0.44684565 0.43747076 0.4045489 -0.18807673 0.12533005
-0.27056602 -0.17284076 0.26602966 -0.09844862 0.12799394 0.21007629 -0.05917812 0.16011532
0.4149386 -0.0990275 -0.60819954 0.22434877 0.27260345 0.15090102 0.04625342 0.21363501
0.22098066 -0.1916833 0.07162849 -0.18678014 0.1359984 0.06224339 -0.40849125 0.4594357
0.43523636 -0.2735374 -0.06018397 0.14297631 -0.039450094 -0.055051148 -0.21183355 0.24738371
-0.31416023 0.27926284 -0.026596244 0.061235894 -0.40942287 -0.18561928 -0.4030333 0.036777277
-0.30556187 -0.20289639 -0.01147777 -0.083198845 -0.06663889 -0.18640904 -0.15954933 -0.25662893
-0.33214107 -0.23260929 0.20235832 0.08791922 -0.2003224 0.26117012 -0.08691755 -0.37811053
-0.16641542 -0.03203205 -0.20705523 0.43073872 0.04611395 0.38719755 -0.16858314 -0.1413921
-0.0022871015 0.39699206 0.31663403 0.23552915 -0.1010863 -0.10156686 -0.30496582 -0.37906945
-0.30934563 -0.27681273 -0.049033817 0.24147646 0.17763081 -0.18835619 0.23790933 0.090254076
-0.398376 0.26724654 0.27397758 -0.52746594 0.23086421 0.25711855 -0.3159242 0.2172005
0.023927376 -0.35068405 0.46698102 0.4356049 0.039271843 0.5345603 -0.19915281 0.50305116
0.4547255 -0.5119816 0.5569727 0.18229426 0.37994525 -0.20234936 0.34168828 -0.20603517
-0.5394452 -0.49765134 0.0047533885 0.12516823 0.025505014 -0.005481075 -0.21710616 -0.153327
-0.3190538 -0.2689261 -0.26165125 0.16313308 0.347497 0.39688626 -0.2727755 0.24456768
-0.4060513 -0.26079482 -0.045764104 -0.19131374 -0.22126848 0.20181245 0.07750345 -0.30321324
0.30674067 -0.17691793 -0.10914709 0.099977724 0.11036733 -0.15183146 0.018097749 -0.038849965
-0.18507138 -0.2062594 0.19063976 -0.21097924 -0.14834638 0.085070595 -0.022971097 -0.2861934
0.26071322 -0.045913845 -0.3530582 0.19234818 0.12977077 -0.3993399 0.21278694 0.0007374617
-0.1880074 0.2655379 0.15547898 0.037854336 0.0071353987 0.33978367 -0.3577668 -0.18334472
-0.06463388 -0.055650037 0.17334267 -0.21098776 0.3296311 0.34164113 -0.053218607 0.025380405
0.069218375 0.073922195 -0.21237673 -0.048503388 -0.11213143 0.32086787 -0.20253192 -0.35156822
-0.07883826 0.2822019 0.44900322 0.27331176 -0.011268494 -0.23301376 0.00548185 0.21177687
-0.15824984 -0.31603453 -0.013672299 -0.20195292 -0.2492999 -0.29819602 0.0704368 -0.22395828
00000000: b587 943e 9882 b4bd 26c6 06bf 4d79 013e
00000010: 2d57 0e3f a0c5 ce3e 1c77 d2be 2056 dc3e
00000020: 3339 653e 4f60 ddbe b22f b13e 4b7c 133e
00000030: 8eaf e8bd 7eec 553e 27f2 933e 4f1f 57be
00000040: de18 b23e b04c c63e c152 9ebe 6e52 43bc
00000050: 70fb b7bd 8574 a1be 95d2 81be 2263 34bd
00000060: 058d 77be e875 2c3e 1114 7e3e d9f7 16be
00000070: 920b 4ebe 5e5a 453d 20bd 8f3d 9ecf 5f3e
00000080: df08 7e3c 3da8 67be b6b2 b93c b52b 963e
00000090: 1111 633e 93f0 ba3e dcc6 eabc e931 82bd
000000a0: d743 bdbc cc6e dcbe 3b1a c03e 39e7 5a3c
000000b0: 2976 0a3c 3c20 b03d 4fd2 a0be 4159 04be
000000c0: a151 1a3e 09e6 e0be 6c55 aabe 3898 013f
000000d0: 0526 c13e 642b 9d3e 5df2 4abe 7ca1 d2be
000000e0: 7843 53be 4286 70be 5741 9cbd f4c8 e43e
000000f0: 2bfc df3e 0921 cf3e 3097 40be 8556 003e
00000100: a187 8abe 2bfd 30be 0a35 883e 6e9f c9bd
00000110: d810 033e 3d1e 573e c264 72bd 45f5 233e
00000120: d572 d43e eece cabd f7b2 1bbf afbb 653e
00000130: ae92 8b3e cc85 1a3e 3a74 3d3d 23c3 5a3e
00000140: c148 623e a148 44be f5b1 923d 4b43 3fbe
00000150: 2a43 0b3e edf2 7e3d c425 d1be 283b eb3e
00000160: 4dd7 de3e 180d 8cbe 7783 76bd 6268 123e
00000170: 6c96 21bd 507d 61bd e5ea 58be 2852 7d3e
00000180: 9cd9 a0be 8afb 8e3e 5ee0 d9bc 7dd2 7a3d
00000190: e09f d1be fb12 3ebe 615a cebe c5a3 163d
000001a0: 9b72 9cbe 12c4 4fbe 420d 3cbc 2864 aabd
000001b0: f879 88bd 03e2 3ebe e660 23be de64 83be
000001c0: 650e aabe 2131 6ebe 0537 4f3e fe0e b43d
000001d0: 5121 4dbe 17b8 853e d401 b2bd b497 c1be
000001e0: ce68 2abe 0a34 03bd 4906 54be c989 dc3e
000001f0: fbe1 3c3d c23e c63e 0fa1 2cbe 17c9 10be
00000200: 32e3 15bb 8b42 cb3e db1d a23e 8e2e 713e
00000210: 5606 cfbd 4902 d0bd 7b24 9cbe 6415 c2be
00000220: 8d62 9ebe 66ba 8dbe afd7 48bd 9b45 773e
00000230: dae4 353e 72e0 40be 819e 733e 21d7 b83d
00000240: f0f7 cbbe 8ad4 883e ca46 8c3e 0208 07bf
00000250: ab67 6c3e 0ba5 833e d1c0 a1be cf69 5e3e
00000260: 5803 c43c dc8c b3be 2318 ef3e 9b07 df3e
00000270: 83db 203d f2d8 083f b7ee 4bbe f6c7 003f
00000280: c8d1 e83e 3a11 03bf c395 0e3f 59ab 3a3e
00000290: 2f88 c23e ac34 4fbe c4f1 ae3e e2fa 52be
000002a0: 1519 0abf 28cc febe 50c2 9b3b 1a2c 003e
000002b0: e4ef d03c 979a b3bb 1451 5ebe c101 1dbe
000002c0: 055b a3be afb0 89be 27f7 85be 5c0c 273e
000002d0: 20eb b13e ad34 cb3e 3ba9 8bbe f36f 7a3e
000002e0: f5e5 cfbe e686 85be 2473 3bbd c0e7 43be
000002f0: 3494 62be eca7 4e3e 21ba 9e3d c43e 9bbe
00000300: 1d0d 9d3e f929 35be 8288 dfbd 1fc1 cc3d
00000310: 4408 e23d b579 1bbe bb41 943c 2421 1fbd
00000320: 5a83 3dbe aa35 53be 1237 433e f10a 58be
00000330: 1de8 17be 7e39 ae3d e22d bcbc f187 92be
00000340: 347c 853e 2810 3cbd 0bc4 b4be ecf6 443e
00000350: a1e2 043e 4876 ccbe d2e4 593e 3852 413a
00000360: 0385 40be 95f4 873e e235 1f3e 260d 1b3d
00000370: 10d0 e93b 20f8 ad3e 362d b7be b8be 3bbe
00000380: c55e 84bd 4bf1 63bd be80 313e 2d0d 58be
00000390: 68c5 a83e 96eb ae3e c1fb 59bd 91ea cf3c
000003a0: 5dc2 8d3d 8564 973d 4979 59be 7dab 46bd
000003b0: 2aa5 e5bd cb48 a43e 8764 4fbe c000 b4be
000003c0: f475 a1bd c47c 903e c0e3 e53e 85ef 8b3e
000003d0: 7d9f 38bc 299b 6ebe 17a1 b33b 09dc 583e
000003e0: 3f0c 22be 47cf a1be c701 60bc bfcc 4ebe
000003f0: 7948 7fbe 26ad 98be 2b41 903d 5255 65be

bias f4 [32]
-0.070482075 -0.072946675 0.37769827 -0.16665056 -0.19705252 -0.14276585 -0.025167357 -0.060386214
-0.14725539 0.045007814 -0.28999904 0.6585585 0.2604316 -0.014363019 0.10940073 0.25726414
0.0020074856 -0.39941415 -0.01617635 -0.13072799 0.298953 -0.01963016 -0.09194948 0.2505927
-0.039064057 -0.16601945 -0.007584695 -0.11395992 -0.20063613 -0.17045982 -0.19376712 0.22616974
00000000: e858 90bd 1165 95bd ab61 c13e 72a6 2abe
00000010: 23c8 49be 3631 12be c62b cebc 8957 77bd
00000020: 1eca 16be 1d5a 383d c17a 94be 4a97 283f
00000030: 4a57 853e de52 6bbc 7d0d e03d 20b8 833e
00000040: 0590 033b 0380 ccbe 4484 84bc 8fdd 05be
00000050: 5e10 993e 6ecf a0bc 0250 bcbd b04d 803e
00000060: a201 20bd 0101 2abe 0889 f8bb d263 e9bd
00000070: 8f73 4dbe 058d 2ebe e36a 46be 0a99 673e

weight f4 [64, 32, 3, 3]
-0.06680152 0.05764777 0.004673082 0.021170441 -0.068573125 -0.06668593 0.02055568 0.062724896
0.025618302 -0.067880645 0.007096962 0.066844195 -0.06271615 -0.002450626 -0.024532601 0.025543831
0.018650675 -0.045328718 0.039426874 -0.036917616 -0.03465586 -0.008710453 -0.036708374 0.046161857
-0.045194607 0.023107208 -0.005792373 0.050391927 -0.0101066325 -0.003455535 0.057091344 -0.054344106
0.028938165 -0.016933907 -0.04929241 0.042462476 0.009878708 -0.039858527 -0.03015048 -0.06040136
0.018443199 -0.041437015 -0.01287477 -0.004096517 0.016752798 0.04570982 -0.05339392 -0.055525627
0.059989948 0.074237294 0.039607733 0.056821685 0.044994544 0.017341128 -0.031514652 -0.011335863
0.02640893 -0.0035701524 -0.06355826 -0.02087893 -0.009207209 0.041660387 -0.017134024 -0.03771078
0.019046135 0.04361296 -0.024371129 0.05537918 0.03999478 0.027628869 0.0041556116 0.004919037
-0.0023572154 -0.007475966 0.0024013224 -0.07058081 0.0142829 0.017026063 0.016822603 0.02405471
0.0016845071 -0.039640605 -0.014442921 -0.008497534 0.023139598 -0.014178004 -0.0481094 0.029969886
0.02794582 0.059907854 0.018264193 0.04047756 -0.03675814 -0.007333154 -0.040116616 -0.0564509
-0.0030540943 -0.037096664 0.023214383 0.05368572 -0.040890325 -0.013922246 -0.021977393 0.04250603
-0.04244887 0.02499533 -0.024558732 -0.050615296 0.05211255 -0.027235612 -0.05469439 -0.030837001
-0.040045273 0.012394967 0.01998706 0.048304617 -0.047064256 -0.0144218225 -0.066229574 -0.0327997
-0.0035678104 -0.0221571 0.0037877606 -0.020551572 0.013939671 0.028806495 0.030604493 -0.012690013
0.009039748 -0.05145045 -0.049189616 0.032533422 0.06815888 0.012368065 -0.060886096 -0.039880987
-0.037156876 0.032770246 -0.0045554135 -0.05368847 -0.05951515 -0.0272803 -0.027035376 0.043887336
-0.018317278 0.039076224 -0.014696273 -0.009984259 -0.05375476 -0.028877195 -0.012358202 -0.047709264
0.01151313 -0.019722585 -0.055252515 -0.02548041 -0.0187404 -0.069242485 -0.0797506 -0.013370875
-0.054318953 0.019507337 0.030297132 0.037303995 0.042989325 -0.06699683 0.03130536 0.0060875225
-0.035579186 0.0235061 0.0217265 0.037677247 0.05322148 -0.024890563 -0.044418216 -0.019438619
-0.05252565 0.044132564 0.010895109 0.026387328 -0.042132005 0.0022387046 -0.058991194 -0.05150102
-0.028871791 -0.024649762 -0.06917116 -0.060133494 -0.06131186 -0.054922197 0.037530836 -0.03923442
0.033985928 0.022933822 -0.023169512 -0.028627986 0.03594952 -0.057069093 0.040329084 0.014633226
0.020621916 0.011904503 0.054519873 0.021374714 -0.026628256 0.04529887 -0.013311795 -0.01202494
-0.026007164 -0.024779078 -0.026178477 -0.018088875 -0.021600869 -0.06837728 -0.016688528 0.00301946
-0.043226335 0.009895308 0.0153934825 -0.014241162 0.0015481998 0.03264783 0.053593043 0.0074638664
-0.03455002 -0.08091583 0.026836544 0.0540256 0.042227123 -0.022684291 0.00325258 0.0670266
-0.035860416 0.059875008 -0.062460776 -0.04926128 0.01708851 0.058623355 -0.044706997 0.012464103
0.062220328 0.07251102 0.011824005 0.0018927703 0.006009629 -0.028590372 -0.00899496 -0.025631497
0.014640721 0.022659663 0.03510551 -0.051015574 0.007463015 -0.055241536 0.049446516 0.038786903
00000000: 3ccf 88bd 1120 6c3d a720 993b a26d ad3c
00000010: 1170 8cbd a292 88bd 6364 a83c e975 803d
00000020: 79dd d13c 0205 8bbd a28d e83b 9ce5 883d
00000030: 5371 80bd af9a 20bb 98f8 c8bc 4c41 d13c
00000040: 4dc9 983c 9baa 39bd 137e 213d ed36 17bd
00000050: 4ef3 0dbd 4ab6 0ebc 855b 16bd 3714 3d3d
00000060: fb1d 39bd 544b bd3c f2cd bdbb c467 4e3d
00000070: 4a96 25bc 4276 62bb 9dd8 693d ed97 5ebd
00000080: bb0f ed3c fab8 8abc d7e6 49bd 22ed 2d3d
00000090: 4eda 213c b242 23bd 24fe f6bc 6b67 77bd
000000a0: 3116 973c dcb9 29bd b3f0 52bc 133c 86bb
000000b0: 2a3d 893c 383a 3b3d 95b3 5abd d76e 63bd
000000c0: 05b8 753d b909 983d b83b 223d dbbd 683d
000000d0: 334c 383d fb0e 8e3c 8215 01bd 0eba 39bc
000000e0: 8a57 d83c 38f9 69bb d52a 82bd 4a0a abbc
000000f0: d5d9 16bc 15a4 2a3d a75c 8cbc 9e76 1abd
00000100: a406 9c3c 81a3 323d f6a5 c7bc 47d5 623d
00000110: 91d1 233d f055 e23c cc2b 883b e02f a13b
00000120: 837b 1abb f3f8 f4bb 815f 1d3b ac8c 90bd
00000130: d302 6a3c 3e7a 8b3c 8ecf 893c 620e c53c
00000140: aeca dc3a 305e 22bd 00a2 6cbc 3e39 0bbc
00000150: 418f bd3c dc4a 68bc 5d0e 45bd 6883 f53c
00000160: a2ee e43c f061 753d ca9e 953c cccb 253d
00000170: b48f 16bd f44a f0bb 5251 24bd 0f39 67bd
00000180: 3327 48bb acf2 17bd 172c be3c 8fe5 5b3d
00000190: 9d7c 27bd 221a 64bc ef09 b4bc ce1a 2e3d
000001a0: dede 2dbd 02c3 cc3c 652f c9bc fc51 4fbd
000001b0: f873 553d 381d dfbc 3a07 60bd e19d fcbc
000001c0: 8306 24bd 4214 4b3c e7bb a33c 10db 453d
000001d0: 73c6 40bd 8249 6cbc 5fa3 87bd fa58 06bd
000001e0: edd1 69bb ce82 b5bc 143c 783b c55b a8bc
000001f0: 3863 643c 99fb eb3c 46b6 fa3c c6e9 4fbc
00000200: 741b 143c b5bd 52bd 0d7b 49bd c441 053d
00000210: e296 8b3d 6da3 4a3c b363 79bd 3f5a 23bd
00000220: cf31 18bd 183a 063d 9445 95bb 71e8 5bbd
00000230: 28c6 73bd f07a dfbc 4b79 ddbc 35c3 333d
00000240: 1e0e 96bc 640e 203d a3c8 70bc 0495 23bc
00000250: f42d 5cbd de8f ecbc 0e7a 4abc ca6a 43bd
00000260: 91a1 3c3c 4291 a1bc 7650 62bd 4bbc d0bc
00000270: 7885 99bc 01cf 8dbd 4854 a3bd 8411 5bbc
00000280: 8d7d 5ebd dacd 9f3c b131 f83c 13cc 183d
00000290: 9315 303d a235 89bd 0d3a 003d d779 c73b
000002a0: 7bbb 11bd dd8f c03c c6fb b13c 7553 1a3d
000002b0: c4fe 593d 4be7 cbbc e0ef 35bd bd3d 9fbc
000002c0: 2325 57bd 59c4 343d 6681 323c 3d2a d83c
000002d0: 9c92 2cbd 3bb7 123b c0a0 71bd bcf2 52bd
000002e0: 8984 ecbc 4cee c9bc 9ca9 8dbd 8a4e 76bd
000002f0: 2522 7bbd 19f6 60bd efb9 193d 45b4 20bd
00000300: d434 0b3d b6df bb3c fdcd bdbc 3d85 eabc
00000310: ce3f 133d 48c1 69bd 1c30 253d 33c0 6f3c
00000320: 4bef a83c 1b0b 433c 3b50 5f3d 061a af3c
00000330: 8023 dabc 4f8b 393d b719 5abc 4104 45bc
00000340: fa0c d5bc 7efd cabc 3f74 d6bc 1f2f 94bc
00000350: 4ef4 b0bc 6309 8cbd 61b6 88bc 22e2 453b
00000360: 190e 31bd ee1f 223c f234 7c3c c353 69bc
00000370: f7ec ca3a bbb9 053d 6184 5b3d 7393 f43b
00000380: 5284 0dbd 33b7 a5bd 50d8 db3c f349 5d3d
00000390: 59f6 2c3d 68d4 b9bc 3d29 553b 3e45 893d
000003a0: 5fe2 12bd 7f3f 753d dfd6 7fbd 32c6 49bd
000003b0: 34fd 8b3c 0b1f 703d af1e 37bd 3d36 4c3c
000003c0: beda 7e3d a880 943d 79b9 413c d516 f83a
000003d0: 6cec c43b 5b36 eabc 995f 13bc 25f9 d1bc
000003e0: a2df 6f3c c2a0 b93c ccca 0f3d b5f5 50bd
000003f0: 4f8c f43b f344 62bd 6e88 4a3d 04df 1e3d

bias f4 [64]
0.040800095 0.030611895 0.040462118 0.029106734 0.046878025 0.01134645 -0.033541266 -0.1959758
-0.018973492 -0.12512162 0.013437181 0.03711441 0.028189307 0.0007487091 -0.037533544 -0.054871187
-0.11517627 0.026243515 -0.0047611897 -0.034593124 -0.074636206 -0.035193004 0.025401404 -0.011119213
-0.034412514 -0.014960106 -0.08275723 -0.08626249 -0.10060731 0.03245048 0.0033785517 -0.11381295
-0.060341325 -0.17787959 -0.005791639 -0.03717898 -0.028103754 0.0261631 0.022830116 -0.017826492
-0.05547885 -0.10465186 -0.12667441 -0.035080727 -0.032934684 -0.013498199 0.06807915 0.0062368433
-0.004819441 -0.09179218 0.021364287 -0.02483502 -0.017173551 -0.10112709 -0.11865861 -0.012062217
-0.023168532 -0.078016706 0.015243029 -0.15539531 -0.03142406 -0.14180154 -0.0006395967 0.010934607
00000000: 001e 273d ccc5 fa3c 9bbb 253d 3f71 ee3c
00000010: 2c03 403d 76e6 393c 9162 09bd e1ad 48be
00000020: 4c6e 9bbc e21f 00be 9f27 5c3c 4805 183d
00000030: 43ed e63c 0445 443a c6bc 19bd 9cc0 60bd
00000040: 89e1 ebbd a4fc d63c c103 9cbb 85b1 0dbd
00000050: deda 98bd 8a26 10bd 9b16 d03c 5c2d 36bc
00000060: 23f4 0cbd 3c1b 75bc 9f7c a9bd 63aa b0bd
00000070: 350b cebd cbea 043d b16a 5d3b c416 e9bd
00000080: 7728 77bd 1126 36be cac7 bdbb fc48 18bd
00000090: d839 e6bc ff53 d63c 3906 bb3c dd08 92bc
000000a0: ca3d 63bd b753 d6bd f0b6 01be cfb0 0fbd
000000b0: 85e6 06bd 8d27 5dbc 156d 8b3d 6f5e cc3b
000000c0: 67ec 9dbb 8afd bbbd 2804 af3c d072 cbbc
000000d0: 8caf 8cbc b81b cfbd 4903 f3bd 9ba0 45bc
000000e0: efcb bdbc 39c7 9fbd e6bd 793c f31f 1fbe
000000f0: 84b6 00bd 6c34 11be 9caa 27ba 1127 333c

weight f4 [128, 1600]
-0.023885442 -0.0112531595 0.040680025 0.029554578 0.021235365 0.007997605 -0.005077324 -0.002806457
0.0056644343 0.0054519945 -0.01644715 -0.02093188 -0.0093367435 0.007244162 0.018002942 0.004942569
0.03294099 0.018290827 0.0009627539 0.011749367 -0.00869959 -0.007404914 0.010596918 -0.005737604
0.007401319 -0.017001878 0.004152245 0.0027172985 0.017444717 -0.024232067 -0.020602968 0.0005910273
0.010225519 0.020754091 0.0028011089 -0.00612867 -0.026217612 0.023995684 0.027088117 0.021342594
-0.021187497 0.0070526293 0.011344109 -0.0048918338 0.0050051543 0.012386758 -0.003533816 0.022608668
0.013847182 -0.024742754 -0.007292864 -0.0013647287 0.027641792 -0.017045667 0.0012748882 -0.017025989
-0.0053691864 0.022622915 0.0017130419 -0.0007761551 -0.009077227 -0.013375158 -0.009445862 0.0045718797
-0.021579081 -0.0153333405 0.004870058 -0.012622049 -0.0005798947 -0.02059004 0.021819659 -0.011777814
0.008808718 -0.015518543 -0.030767556 -0.02215304 -0.018975995 -0.017707715 -0.042964652 -0.000757481
0.017420633 -0.024013603 0.01762924 -0.032216962 0.012249266 -0.0043065213 0.024333132 0.016620738
0.007075015 -0.023148902 -0.002458072 -0.045868866 -0.0066531617 0.009338616 -0.010230948 0.023751764
-0.0024453432 -0.006528699 0.016943123 0.012859237 0.016553128 -0.0017435731 0.032831714 0.064871825
0.016086593 -0.020897022 0.0057802466 0.038616344 0.029159132 -0.02694787 -0.008109226 -0.028190186
-0.037076138 -0.015596829 -0.009425968 -0.008891135 0.002097084 0.0142078 0.005441157 -0.026136892
0.01674025 0.053003564 0.041461833 0.016595038 -0.02917453 -0.009099988 -0.0031524794 0.031271655
0.014079947 -0.021430716 -0.026368927 0.008021019 0.020722758 -0.0026341078 0.0025898165 -0.0328905
-0.002521716 0.015095407 0.0065036467 -0.011755571 -0.011084704 0.038695052 -0.0024881524 -0.015050498
-0.013291609 0.004832565 0.013904221 -0.0073776585 0.003989113 -0.006432222 -0.016146597 2.6010668e-05
-0.024146784 0.00817495 0.013715973 0.021403236 0.011567002 0.03328097 0.007969454 0.004592519
-0.007602893 0.026079673 0.008443747 -0.0053427243 -0.0067401505 -0.010960614 -0.021220678 -0.005730226
-0.025450477 0.006376241 0.0023708672 -0.012384982 0.008936759 0.012463181 -0.013049384 0.0011500763
0.021360796 0.050590515 0.089265704 0.005039848 0.010304067 0.00525917 -0.011031729 0.012139335
0.022216018 0.018443624 -0.02136625 -0.03785884 -0.03317084 0.0025984852 -0.019059287 -0.00013246264
-0.029898131 0.00680147 0.030942999 -0.0010881547 0.003727585 -0.03282768 0.014419353 0.012212508
0.01346026 -0.022200657 0.025572017 0.021105565 0.026441323 0.013006036 0.014073855 -0.026154691
-0.013662771 -0.017407 -0.004659797 -0.017606948 -0.014399106 -0.021655718 0.013534388 0.008692382
0.03831291 0.032133263 0.019652491 -0.018868 0.005755839 0.03416931 0.005465426 0.014648304
-0.01493597 -0.028291488 0.025372576 0.015504211 0.075794786 0.028951392 -0.024786964 0.024278268
-0.011344038 0.031888727 0.014141689 -0.012071513 -0.020850813 -0.032658774 0.009171789 -0.012719883
0.0073293317 0.007016859 0.042269554 0.0054041785 -0.041025717 0.013484355 -0.016671656 -0.017273013
-0.022130163 -0.018644085 -0.008267187 -0.011992735 -0.030421732 -0.004036434 0.00796308 -0.005532302
00000000: 67ab c3bc 2c5f 38bc 19a0 263d 711c f23c
00000010: caf5 ad3c 6308 033c ae5f a6bb 89ec 37bb
00000020: b89c b93b a5a6 b23b 2cbc 86bc 5679 abbc
00000030: 24f9 18bc 6f60 ed3b e87a 933c 46f5 a13b
00000040: 22ed 063d a5d6 953c 5261 7c3a 6b80 403c
00000050: ba88 0ebc eca4 f2bb b29e 2d3c 8302 bcbb
00000060: c486 f23b 8647 8bbc 8e0f 883b b414 323b
00000070: 39e8 8e3c 5482 c6bc 8ec7 a8bc 2cef 1a3a
00000080: ef88 273c 7c04 aa3c cf92 373b 03d3 c8bb
00000090: 51c6 d6bc 9992 c43c e6e7 dd3c aad6 ae3c
000000a0: 6791 adbc be19 e73b a4dc 393c ad4b a0bb
000000b0: 4702 a43b d4f1 4a3c 9897 67bb d035 b93c
000000c0: 4adf 623c 51b1 cabc faf8 eebb b2e0 b2ba
000000d0: 0a71 e23c 5ba3 8bbc 261a a73a 167a 8bbc
000000e0: 00f0 afbb b153 b93c 2688 e03a e376 4bba
000000f0: a6b8 14bc 7b23 5bbc d1c2 1abc b5cf 953b
00000100: 9dc6 b0bc b138 7bbc 0295 9f3b b6cc 4ebc
00000110: 1304 18ba 72ac a8bc 24bf b23c bbf7 40bc
00000120: 7152 103c 7d41 7ebc 3e0c fcbc 4b7a b5bc
00000130: 8c73 9bbc c50f 91bc b4fb 2fbd b091 46ba
00000140: b7b5 8e3c 2db8 c4bc 326b 903c eff5 03bd
00000150: 25b1 483c b81d 8dbb 4756 c73c 3728 883c
00000160: 87d5 e73b c4a2 bdbc 9b17 21bb fee0 3bbd
00000170: c402 dabb ff00 193c b59f 27bc 0f93 c23c
00000180: 0d42 20bb b2ee d5bb 4ecc 8a3c 8daf 523c
00000190: 6d9a 873c 9b88 e4ba 8c7a 063d 85db 843d
000001a0: 08c8 833c 3b30 abbc 3968 bd3b 2c2c 1e3d
000001b0: 22df ee3c c8c1 dcbc 8fdc 04bc 1bef e6bc
000001c0: 26dd 17bd d889 7fbc 606f 1abc 20ac 11bc
000001d0: 3b6f 093b d5c7 683c bc4b b23b 091d d6bc
000001e0: d922 893c 441a 593d e2d3 293d 51f2 873c
000001f0: 6dff eebc 1e18 15bc d499 4ebb b516 003d
00000200: 94af 663c 788f afbc a603 d8bc 986a 033c
00000210: c6c2 a93c ffa0 2cbb e9b9 293b 30b8 06bd
00000220: 6043 25bb ba52 773c 8b1c d53b 709a 40bc
00000230: 9e9c 35bc b47e 1e3d 4510 23bb 5d96 76bc
00000240: 0cc5 59bc 7e5a 9e3b 88ce 633c 49c0 f1bb
00000250: 1bb7 823b 64c5 d2bb de45 84bc 7c31 da37
00000260: 7acf c5bc 3af0 053c f6b8 603c d755 af3c
00000270: 8683 3d3c a051 083d 5092 023c d77c 963b
00000280: b021 f9bb 0aa5 d53c a457 0a3c 0512 afbb
00000290: 7bdc dcbb 2694 33bc fdd6 adbc 9fc4 bbbb
000002a0: 857d d0bc c9ef d03b 8d60 1b3b 61ea 4abc
000002b0: 7c6b 123c 5f32 4c3c 15cd 55bc 28be 963a
000002c0: d6fc ae3c 0038 4f3d f0d0 b63d 4f25 a53b
000002d0: 64d2 283c 1e55 ac3b 6dbe 34bc 10e4 463c
000002e0: 5efe b53c 1517 973c 4608 afbc df11 1bbd
000002f0: 26de 07bd 594b 2a3b 3922 9cbc abe5 0ab9
00000300: edec f4bc dede de3b 2c7c fd3c 6aa0 8eba
00000310: 804a 743b 5176 06bd 263f 6c3c f916 483c
00000320: 6c88 5c3c 27de b5bc 687c d13c 94e5 ac3c
00000330: 799b d83c 4517 553c 0796 663c 5d42 d6bc
00000340: d1d9 5fbc 2099 8ebc 36b1 98bb 723c 90bc
00000350: 3aea 6bbc 5567 b1bc 56bf 5d3c 7e6a 0e3c
00000360: ffed 1c3d 2b9e 033d 43fe a03c 1091 9abc
00000370: 7a9b bc3b 1ef5 0b3d 5117 b33b 71ff 6f3c
00000380: 00b6 74bc 8dc3 e7bc 26da cf3c 6005 7e3c
00000390: 4c3a 9b3d 782b ed3c 080e cbbc 38e3 c63c
000003a0: 58dc 39bc c19d 023d 8bb2 673c 98c7 45bc
000003b0: 53cf aabc 35c5 05bd 4545 163c 0e67 50bc
000003c0: e42a f03b aeed e53b d722 2d3d 8915 b13b
000003d0: 950a 28bd 7ced 5c3c ff92 88bc 2280 8dbc
000003e0: 514a b5bc 7bbb 98bc 1873 07bc 2d7d 44bc
000003f0: ff36 f9bc 1044 84bb 9477 023c 5048 b5bb

bias f4 [128]
-0.03864063 0.029578077 -0.012563655 0.02042228 -0.02946144 -0.032775342 -0.017550653 -0.019630942
-0.0045372266 0.018028917 -0.011472539 0.017029965 0.028921137 0.013681629 -0.014052931 -0.029766329
-0.034063328 -0.0022315509 -0.0057425345 -0.016943904 0.0013830133 0.042671315 -0.0016509404 -0.031470694
-0.014927732 -0.010712737 0.011855449 0.0001752341 -0.0154891955 0.009654759 0.018206118 0.01129561
-0.0053136535 -0.01603534 -0.02093349 -0.008018918 0.0027335633 0.023464931 0.035628974 -0.0042105652
0.043822564 -0.020644704 -0.018855108 0.036593307 0.004665131 0.009683204 -0.005320609 0.025007837
0.015058351 0.0012151626 -0.01048609 0.0014215056 -0.034495678 0.020630635 0.01226541 -5.101488e-05
0.0037059044 -0.020225786 0.01932411 0.008334502 0.027896559 -0.010300256 0.016945688 -0.00028399733
-0.017255446 -0.012512881 -0.024869313 -0.0048777848 -0.02694472 0.00010424143 0.04408426 -0.03372257
-0.044879947 0.03885658 -0.011868182 -0.045898046 0.02511346 -0.0043279123 -0.026020823 0.032777797
0.006088696 -0.015317985 0.00942711 0.026437016 0.019339953 0.016498521 -0.0065026446 0.026015038
-0.01381143 -0.004005061 0.030049946 0.0062779994 0.0037954012 -0.008314122 0.015961371 0.02015428
0.015141663 -0.0012246202 -0.0017194486 0.012070822 -0.013395447 -0.026436403 -0.0030341574 0.037328556
0.029581258 0.013901247 -0.0011559649 0.012853646 0.0034285106 0.027449308 0.019861257 0.019387227
0.0001329854 -0.016274005 0.012094699 0.013125554 -0.0383007 0.01932882 -0.013696152 -0.0058515463
0.0056994823 0.00055067963 4.3669053e-05 -0.026760355 -0.02957904 -0.029671585 0.029764552 -0.0006703701
00000000: a345 1ebd b94d f23c cad7 4dbc a04c a73c
00000010: 1e59 f1bc 703f 06bd 63c6 8fbc 12d1 a0bc
00000020: 04ad 94bb 61b1 933c 51f7 3bbc 6d82 8b3c
00000030: 05ec ec3c e928 603c 443e 66bc 84d8 f3bc
00000040: fd85 0bbd 363f 12bb df2b bcbb f1cd 8abc
00000050: 3a46 b53a 1ec8 2e3d 5e64 d8ba 6ae7 00bd
00000060: 7293 74bc 7a84 2fbc 5b3d 423c 0cbf 3739
00000070: 65c6 7dbc ff2e 1e3c ff24 953c 3911 393c
00000080: 281e aebb 8c5c 83bc b67c abbc c861 03bc
00000090: 9525 333b 8739 c03c b0ef 113d c8f8 89bb
000000a0: 4a7f 333d 151f a9bc 0776 9abc dde2 153d
000000b0: f5dd 983b 4da6 1e3c 8158 aebb 3cdd cc3c
000000c0: 4db7 763c 1746 9f3a d9cd 2bbc d051 ba3a
000000d0: 574b 0dbd 9401 a93c dcf4 483c cff8 55b8
000000e0: c2de 723b 8cb0 a5bc 994d 9e3c 6f8d 083c
000000f0: 5387 e43c 68c2 28bc afd1 8a3c 7ae5 94b9
00000100: 4b5b 8dbc d402 4dbc bbba cbbc d3d5 9fbb
00000110: 2cbb dcbc 319c da38 b291 343d ad20 0abd
00000120: 09d4 37bd 1428 1f3d c372 42bc 97ff 3bbd
00000130: beba cd3c 29d1 8dbb 9f29 d5bc 0342 063d
00000140: af83 c73b 49f8 7abc 2a74 1a3c 7192 d83c
00000150: d26e 9e3c e827 873c 2314 d5bb 7d1d d53c
00000160: 5649 62bc e33c 83bb 4e2b f63c adb7 cd3b
00000170: 44bc 783b f537 08bc 6cc1 823c 971a a53c
00000180: bd14 783c 6f83 a0ba 1f5f e1ba b2c4 453c
00000190: 9478 5bbc 2891 d8bc b7d8 46bb d4e5 183d
000001a0: 6554 f23c 0ec2 633c bf83 97ba 1998 523c
000001b0: ddb0 603b 5fdd e03c 13b4 a23c f6d1 9e3c
000001c0: ff71 0b39 1051 85bc d828 463c 900c 573c
000001d0: 32e1 1cbd 7957 9e3c d365 60bc 54be bfbb
000001e0: b9c2 ba3b 7c5b 103a 4a29 3738 8838 dbbc
000001f0: be4f f2bc d311 f3bc cad4 f33c c7bb 2fba

weight f4 [10, 128]
0.13229366 -0.127029 -0.086434275 -0.046574026 -0.11595655 -0.2113096 -0.114289664 -0.28039208
-0.060728554 0.07528517 -0.11575967 -0.14247862 -0.10857477 -0.19161019 0.088191494 -0.16866073
-0.05046584 0.033793915 -0.14677714 -0.086243324 -0.11716045 0.060338814 0.12455978 0.009695118
0.19849113 -0.18700284 -0.10168342 -0.09749318 -0.12128105 0.004942369 0.009586701 -0.111334324
-0.14048593 0.12916455 -0.082052864 -0.20609336 0.06573955 -0.13641469 -0.08840819 -0.15145136
-0.062152725 0.17984557 0.017642211 -0.03782495 0.10471865 0.10138626 0.15368617 -0.19323547
-0.08449206 -0.08946954 -0.01721265 -0.075773165 -0.09767346 0.23603465 0.21311651 -0.045630742
-0.1263428 -0.113663316 0.11001969 -0.17617683 0.18787256 -0.16943452 -0.100062594 -0.09095414
-0.17626813 -0.011287812 -0.02545354 -0.12886393 -0.1978476 -0.019680642 -0.091176994 0.04380453
0.014861485 0.02632029 -0.18721005 -0.05766494 -0.020757366 -0.077047616 0.11691837 -0.14644375
0.09069581 -0.14154421 -0.08220685 -0.15340525 0.20146357 -0.022733329 0.009721032 0.071650505
0.07837998 -0.10682589 0.13148119 0.020442763 -0.20243707 -0.1526633 0.14932857 0.044171326
0.19082169 0.10145836 -0.13131289 -0.001215665 -0.18368472 -0.111621805 0.15752172 0.19479318
0.016929632 0.06177286 -0.0498727 -0.07086938 -0.07563296 -0.09295874 -0.10377404 -0.13495326
0.016886754 -0.043451205 -0.021554535 -0.012565447 -0.13697715 0.0016479256 0.03765389 -0.121237226
-0.040746585 0.22843277 0.17245309 0.07419213 0.07566494 0.025513249 -0.17637828 0.040170655
-0.21057741 0.054321248 -0.03342737 -0.15264004 0.08174474 -0.06265261 0.10017362 -0.03511381
0.209803 0.110361725 0.025482787 0.053205837 0.13461088 0.08767681 -0.09715053 -0.12611867
-0.18079129 0.04538578 -0.026384294 0.1273676 0.01113633 0.012070068 -0.025626656 -0.122503795
-0.06384714 0.12834556 0.15293264 0.13470711 -0.06349808 0.11997992 -0.01972783 0.20356272
0.049950365 -0.20208718 -0.14073892 -0.13957113 0.07504932 0.15676463 0.31860372 0.12640278
0.08308881 -0.072237395 0.09319677 0.25651234 0.081058785 -0.22300467 -0.14091912 0.12160729
0.18174274 0.12066515 0.0570134 -0.16185392 -0.23873141 0.030614818 0.17360266 0.03622209
0.25663516 -0.21531282 -0.10380433 0.10184422 0.17009336 0.03481507 0.17821099 0.001339195
0.08899913 -0.14148241 0.044888467 0.039130453 0.033275094 0.17053875 0.176091 -0.09940298
-0.3025764 0.15053481 -0.027180834 -0.19205356 0.11712107 -0.09932891 -0.17702048 0.19129694
0.16552724 -0.009026008 -0.0062857205 0.119836256 -0.0730356 0.06574587 0.10057707 -0.074312784
-0.083193004 0.17394808 0.0646441 0.0839232 -0.07651907 -0.068334274 -0.010058705 -0.19420134
-0.14074238 0.1784712 0.1944936 0.20413706 -0.11393528 -0.042015128 -0.123204544 0.016053427
0.008508229 -0.025666965 -0.021469569 0.12691514 0.10261315 0.16680032 0.15497571 0.10359256
0.18151763 -0.061911035 0.09524303 0.09723864 -0.09588939 0.028439792 0.10961536 -0.10016806
-0.13192679 0.12602274 -0.15955268 -0.13553904 -0.100945204 0.12936093 0.1213677 -0.012633492
00000000: fd77 073e e413 02be 7404 b1bd 68c4 3ebd
00000010: a17a edbd 8b61 58be b310 eabd 8d8f 8fbe
00000020: 81be 78bd 1c2f 9a3d 6813 edbd eae5 11be
00000030: 735c debd 7635 44be be9d b43d 66b5 2cbe
00000040: 45b5 4ebd 7d6b 0a3d bf4c 16be 57a0 b0bd
00000050: d1f1 efbd d525 773d 3319 ff3d 46d8 1e3c
00000060: 4241 4b3e ac7d 3fbe 663f d0bd 81aa c7bd
00000070: 3362 f8bd 99f3 a13b 8a11 1d3c 4003 e4bd
00000080: 8bdb 0fbe b643 043e 550b a8bd 230a 53be
00000090: 75a2 863d 4bb0 0bbe 5a0f b5bd 1116 1bbe
000000a0: db93 7ebd 7029 383e 6686 903c 56ee 1abd
000000b0: bb76 d63d 99a3 cf3d e85f 1d3e 85df 45be
000000c0: 2c0a adbd ce3b b7bd 8b01 8dbc f62e 9bbd
000000d0: 0609 c8bd 11b3 713e 373b 5a3e 4de7 3abd
000000e0: 0260 01be 50c8 e8bd 0152 e13d b367 34be
000000f0: aa61 403e 3e80 2dbe 9eed ccbd 2a46 babd
00000100: a27f 34be 84f0 38bc f183 d0bc e8f4 03be
00000110: 9098 4abe 4c39 a1bc 01bb babd 616c 333d
00000120: 967d 733c a69d d73c feb3 3fbe 1232 6cbd
00000130: 5a0b aabc 24cb 9dbd e672 ef3d 5af5 15be
00000140: babe b93d f7f0 10be 115c a8bd 4416 1dbe
00000150: 774c 4e3e 3f3b babc f744 1f3c 80bd 923d
00000160: af85 a03d 88c7 dabd 01a3 063e 9577 a73c
00000170: aa4b 4fbe c553 1cbe 97e9 183e feec 343d
00000180: c366 433e 67c9 cf3d e376 06be f356 9fba
00000190: d917 3cbe f999 e4bd 604d 213e dd77 473e
000001a0: 03b0 8a3c 8a05 7d3d 5147 4cbd f723 91bd
000001b0: 74e5 9abd 2761 bebd 7c87 d4bd 3031 0abe
000001c0: 1756 8a3c e4f9 31bd 2393 b0bc 4edf 4dbc
000001d0: bd43 0cbe 35ff d73a f73a 1a3d 394b f8bd
000001e0: e4e5 26bd 48ea 693e 8b97 303e 0bf2 973d
000001f0: 38f6 9a3d 2901 d13c 829c 34be fc89 243d
00000200: 9ba1 57be f57f 5e3d 23eb 08bd ac4d 1cbe
00000210: c969 a73d 0350 80bd d427 cd3d 80d3 0fbd
00000220: 99d6 563e 5405 e23d 47c1 d03c 5dee 593d
00000230: 6fd7 093e e68f b33d dbf6 c6bd 4125 01be
00000240: 5a21 39be 71e6 393d e023 d8bc a76c 023e
00000250: 2775 363c 89c1 453c feee d1bc 45e3 fabd
00000260: 4ac2 82bd 056d 033e 609a 1c3e a9f0 093e
00000270: 480b 82bd 08b8 f53d 429c a1bc bf72 503e
00000280: c198 4c3d f1ef 4ebe dd1d 10be bceb 0ebe
00000290: 75b3 993d e886 203e 0720 a33e bb6f 013e
000002a0: 772a aa3d 33f1 93bd f3dd be3d 9655 833e
000002b0: 2602 a63d 565b 64be 1a4d 10be 3e0d f93d
000002c0: c51a 3a3e 4a1f f73d e286 693d 09bd 25be
000002d0: 0276 74be edcb fa3c e5c4 313e 9d5d 143d
000002e0: af65 833e f77a 5cbe 5d97 d4bd b493 d03d
000002f0: f42c 2e3e 3f9a 0e3d f17c 363e ed87 af3a
00000300: 2d45 b63d c4e0 10be f8dc 373d 4147 203d
00000310: 774b 083d b6a1 2e3e 3351 343e ca93 cbbd
00000320: 4beb 9abe cc25 1a3e 57aa debc b0a9 44be
00000330: 2cdd ef3d f56c cbbd db44 35be 58e3 433e
00000340: f97f 293e d2e1 13bc 72f8 cdbb b66c f53d
00000350: b093 95bd c5a5 863d 5afb cd3d 4d31 98bd
00000360: 1861 aabd 721f 323e 2064 843d eddf ab3d
00000370: 08b6 9cbd d7f2 8bbd 44cd 24bc b7dc 46be
00000380: c51e 10be 27c1 363e 5529 473e 4e09 513e
00000390: e656 e9bd 0e18 2cbd aa52 fcbd 7a82 833c
000003a0: 1966 0b3c 8743 d2bc f3e0 afbc 0bf6 013e
000003b0: d826 d23d b4cd 2a3e f4b1 1e3e 5628 d43d
000003c0: c2df 393e 6d96 7dbd c70e c33d 0d25 c73d
000003d0: a861 c4bd 91fa e83c 057e e03d e924 cdbd
000003e0: d117 07be 1b0c 013e c761 23be bfca 0abe
000003f0: 5cbc cebd 3177 043e a18f f83d b5fc 4ebc

bias f4 [10]
-0.09047499 0.059544306 0.018252397 0.052129768 -0.061181847 -0.068087436 -0.095063254 0.019331587
-0.000361791 0.075225204
00000000: f44a b9bd bbe4 733d 0d86 953c 0686 553d
00000010: d199 7abd 6d71 8bbd 86b0 c2bd 475d 9e3c
00000020: c4ae bdb9 ac0f 9a3d
