mnist/part2-twodigit/mnist_model_fully_connected.pt (torch, 822591 bytes, 8 tensors)

weight f4 [32, 1, 3, 3]
0.44462907 -0.010942183 -0.52110696 0.35221803 0.74867505 0.5627577 -0.3176196 0.51390696
0.34252834 -0.39866385 0.44205704 0.23115805 -0.037093364 0.3239524 0.35057747 -0.18191487
0.40764126 0.4389793 -0.3016532 0.05899317 -0.03351768 -0.29768425 -0.17118144 0.022240974
-0.23494312 0.23172796 0.2947206 -0.15668778 -0.20899048 0.0059932955 0.0731893 0.20349628
-0.032777995 -0.21811613 0.005436853 0.26688388 0.2482199 0.37518874 -0.024231998 -0.019502826
0.066535644 -0.36423245 0.41275808 0.07469242 0.0615892 0.09358814 -0.31050944 -0.15488043
0.20065707 -0.35340726 -0.30827367 0.5603664 0.4423113 0.3382639 -0.16607988 -0.36772406
-0.1768719 -0.17042813 -0.066597335 0.4374009 0.40885833 0.3747656 -0.17543022 0.15874496
-0.2798664 -0.18131217 0.25681543 -0.11309666 0.14052105 0.19538178 -0.06873149 0.18694633
0.48814103 0.0069685453 -0.5490931 0.344657 0.4132324 0.28922045 0.10103213 0.2783707
0.30348393 -0.099013396 0.15149835 -0.15942371 0.20159921 0.1422058 -0.4118431 0.47576258
0.42786965 -0.31575164 -0.065529995 0.13188209 -0.04707202 -0.056911886 -0.21636164 0.24023375
-0.31516802 0.27550867 -0.030705247 0.13522044 -0.3715253 -0.16287126 -0.41282114 0.075738765
-0.28604832 -0.24682178 -0.016008137 -0.10291354 -0.07376012 -0.18672843 -0.1647726 -0.26850572
-0.33541226 -0.23486215 0.23784886 0.12143144 -0.17204985 0.24611348 -0.100809515 -0.3858731
-0.15398389 0.020512426 -0.17641306 0.4425442 0.10028035 0.4450704 -0.11894172 -0.1360185
0.0041912748 0.42460212 0.32660654 0.28921556 -0.076750614 -0.07783828 -0.23353556 -0.37798604
-0.301886 -0.30078983 0.0038453334 0.28098378 0.1532768 -0.16218765 0.21924026 0.08203243
-0.34266073 0.32569614 0.28284517 -0.43866828 0.3150561 0.28413698 -0.24115029 0.27860516
0.037693635 -0.24626258 0.53285325 0.39242554 0.09251143 0.5542508 -0.14927627 0.505089
0.5305724 -0.4044333 0.564063 0.19640136 0.40300214 -0.18019387 0.35249302 -0.15291701
-0.5078671 -0.42378542 0.09877168 0.124732785 0.024769831 -0.005854272 -0.21707168 -0.1533669
-0.31874648 -0.2689171 -0.26151058 0.1662207 0.2758938 0.33573818 -0.24265233 0.20191817
-0.3915961 -0.19891973 -0.07492772 -0.1560199 -0.17489195 0.22219715 0.079688415 -0.3136244
0.3403898 -0.1769372 -0.10958662 0.11945855 0.08258209 -0.18923381 0.01581076 -0.043156322
-0.1853419 -0.20715503 0.18582074 -0.21135482 -0.14861876 0.08134828 -0.024209585 -0.28496665
0.2393778 -0.0648983 -0.3315459 0.16663352 0.094117664 -0.38201994 0.19693886 -0.020060059
-0.16051689 0.27148646 0.15701844 0.066017196 0.01500028 0.32550436 -0.33428773 -0.18227215
-0.113140985 -0.030383784 0.24593826 -0.13454887 0.40329137 0.41809574 -0.025492901 0.09590328
0.09226146 0.06512085 -0.20881526 -0.0041735 -0.055891607 0.34348813 -0.13402912 -0.29653224
-0.07221318 0.29491934 0.47642687 0.24748759 -0.02590172 -0.22726618 0.0017365507 0.22668543
-0.1472573 -0.31572378 0.00075211236 -0.19360882 -0.20782965 -0.2172974 0.11564398 -0.1716185
00000000: 6ca6 e33e d846 33bc 4467 05bf ec55 b43e
00000010: 2ba9 3f3f e310 103f 099f a2be 688f 033f
00000020: e05f af3e ab1d ccbe 4d55 e23e b2b4 6c3e
00000030: 36ef 17bd 17dd a53e e47e b33e e447 3abe
00000040: 5bb6 d03e e5c1 e03e 4a72 9abe d2a2 713d
00000050: d649 09bd 126a 98be 304a 2fbe b432 b63c
00000060: ee94 70be 184a 6d3e 9ee5 963e c372 20be
00000070: 9a01 56be 6863 c43b 46e4 953d 5461 503e
00000080: 3842 06bd d659 5fbe a127 b23b 01a5 883e
00000090: 5c2d 7e3e bd18 c03e 2f82 c6bc 64c4 9fbc
000000a0: d743 883d ad7c babe 0755 d33e 57f8 983d
000000b0: f544 7c3d 24ab bf3d 18fb 9ebe fa98 1ebe
000000c0: 0c79 4d3e ccf1 b4be 0cd6 9dbe 2c74 0f3f
000000d0: a076 e23e ed30 ad3e d810 2abe 5446 bcbe
000000e0: e81d 35be b684 2ebe 2f64 88bd 03f3 df3e
000000f0: e155 d13e 47e1 bf3e fba3 33be 0a8e 223e
00000100: a64a 8fbe e6a9 39be 507d 833e 399f e7bd
00000110: c0e4 0f3e 2912 483e 18c3 8cbd dc6e 3f3e
00000120: 9fed f93e 6558 e43b 5e91 0cbf e276 b03e
00000130: 3293 d33e b414 943e efe9 ce3d 9b86 8e3e
00000140: 3f62 9b3e 89c7 cabd 6222 1b3e f83f 23be
00000150: 0670 4e3e 669e 113e 19dd d2be 2797 f33e
00000160: bb11 db3e 33aa a1be 9734 86bd 190c 073e
00000170: 97ce 40bd 701c 69bd e88d 5dbe d6ff 753e
00000180: b45d a1be 790f 8d3e 9289 fbbc 3a77 0a3e
00000190: 9038 bebe b9c7 26be 4b5d d3be ed1c 9b3d
000001a0: ed74 92be d9be 7cbe 7f23 83bc 56c4 d2bd
000001b0: 8c0f 97bd bd35 3fbe 26ba 28be 9579 89be
000001c0: 28bb abbe b47f 70be a78e 733e 0cb1 f83d
000001d0: d62d 30be 2c05 7c3e 3875 cebd 2991 c5be
000001e0: f4ad 1dbe ad09 a83c a0a5 34be 2795 e23e
000001f0: c95f cd3d 44e0 e33e b797 f3bd 6f48 0bbe
00000200: f656 893b 7365 d93e f938 a73e 1014 943e
00000210: 6d2f 9dbd ad69 9fbd f223 6fbe 6387 c1be
00000220: cd90 9abe 2001 9abe fd01 7c3b 1bdd 8f3e
00000230: 98f4 1c3e 8514 26be 8580 603e 9e00 a83d
00000240: 3a71 afbe a5c1 a63e 15d1 903e 2199 e0be
00000250: 084f a13e 677a 913e 1af0 76be 56a5 8e3e
00000260: a464 1a3d 422c 7cbe 1269 083f 00ec c83e
00000270: a276 bd3d 61e3 0d3f e1db 18be 834d 013f
00000280: 98d3 073f e211 cfbe 6f66 103f 701d 493e
00000290: 4c56 ce3e be84 38be f779 b43e 4796 1cbe
000002a0: 9403 02bf 67fa d8be ce48 ca3d e773 ff3d
000002b0: 1aea ca3c 31d5 bfbb 0a48 5ebe 360c 1dbe
000002c0: bd32 a3be 81af 89be b7e4 85be c235 2a3e
000002d0: f441 8d3e e0e5 ab3e da79 78be a3c3 4e3e
000002e0: 497f c8be 9db1 4bbe b473 99bd aec3 1fbe
000002f0: e016 33be a687 633e ae33 a33d 6193 a0be
00000300: 9247 ae3e 062f 35be f36e e0bd afa6 f43d
00000310: cc20 a93d 82c6 41be 9185 813c afc4 30bd
00000320: 44ca 3dbe 7320 54be cb47 3e3e 666d 58be
00000330: 842f 18be ed99 a63d 2e53 c6bc 26e7 91be
00000340: 741f 753e 66e9 84bd 62c0 a9be faa1 2a3e
00000350: c3c0 c03d 1e98 c3be 57aa 493e fe54 a4bc
00000360: 8a5e 24be 4600 8b3e 71c9 203e 0634 873d
00000370: bcc3 753c 82a8 a63e c327 abbe 8da5 3abe
00000380: 76b6 e7bd 6ae7 f8bc 3dd7 7b3e 2ec7 09be
00000390: 357c ce3e a510 d63e 7dd6 d0bc f068 c43d
000003a0: 94f3 bc3d 155e 853d abd3 55be dbc1 88bb
000003b0: 99ee 64bd addd af3e ee3e 09be 13d3 97be
000003c0: 81e4 93bd abff 963e 39ee f33e 636d 7d3e
000003d0: d82f d4bc 77b8 68be f99c e33a 3a20 683e
000003e0: 9eca 16be 8ca6 a1be 6829 453a 6441 46be
000003f0: 4cd1 54be 3683 5ebe c0d6 ec3d c3bc 2fbe

bias f4 [32]
-0.010863922 -0.017726906 0.40796995 -0.19177292 -0.17399886 -0.03835391 0.003902392 -0.012293022
-0.008644317 0.09175897 -0.29678208 0.74594045 0.28519303 0.045834493 0.3055678 0.3949435
0.08857192 -0.3161861 -0.038288817 -0.12848073 0.41219702 -0.014681816 -0.09696611 0.3840006
-0.037897922 -0.11776941 0.14063159 -0.14105545 -0.15298583 -0.05967832 -0.19529325 0.26674706
00000000: 97fe 31bc 0438 91bc 70e1 d03e 1f60 44be
00000010: c22c 32be fd18 1dbd 46bf 7f3b ac68 49bc
00000020: e5a0 0dbc 20ec bb3d d2f3 97be f4f5 3e3f
00000030: d204 923e f3bc 3b3d 6273 9c3e 0936 ca3e
00000040: 3265 b53d 25e3 a1be bcd4 1cbd 7490 03be
00000050: 7d0b d33e 008c 70bc 2b96 c6bd ba9b c43e
00000060: da3a 1bbd 1731 f1bd ba01 103e d770 10be
00000070: 51a8 1cbe 4171 74bd f4fa 47be 1293 883e

weight f4 [64, 32, 3, 3]
-0.026425146 0.05380734 -0.017509649 0.041275654 -0.04848684 -0.047026012 -0.0053762067 0.01660571
0.0012974052 -0.03934542 -0.016417995 0.035532136 -0.05168381 0.007550986 -0.00641583 0.011339477
-0.0029365667 -0.06125789 0.031034835 -0.040248115 -0.018412588 -0.0150754005 -0.032451935 0.05284172
-0.037596233 0.034420844 -0.010349773 0.05267943 -0.01146691 -0.00372608 0.058404136 -0.0506065
0.033532996 -0.018569294 -0.051610347 0.03984673 0.030745417 -0.03021917 -0.040142063 -0.048507083
0.01976403 -0.044659644 -0.008471656 -0.0074361004 0.023377163 0.05357604 -0.04448039 -0.04787566
0.0420854 0.057006676 0.032040056 0.033954542 0.008754966 -0.026789894 -0.022325702 -0.0017984246
0.039794877 -0.010112688 -0.057916913 -0.0041753924 -0.019957589 0.04296248 -0.038635064 -0.024195865
0.026525877 0.045490496 -0.025066324 0.05840279 0.04302482 0.012069365 -0.010141811 -0.018200183
0.0315596 0.003698703 -0.010215636 -0.059986938 0.023082124 0.025637599 -0.0074433843 -0.017181873
-0.024023077 -0.020816104 0.0018550907 -0.0075672884 0.02120959 -0.026943754 -0.046297602 0.020363456
0.0065021045 0.044241045 0.018577253 0.040764287 -0.036342446 -0.0073019965 -0.039520644 -0.055750247
-0.0018590481 -0.035921797 0.023519646 0.036344156 -0.037004273 0.0060616736 -0.03290311 0.04173057
-0.04406268 0.035146203 -0.014760528 -0.050254297 0.040940024 -0.027419712 -0.04882619 -0.038209476
-0.04573962 0.0073936773 0.01869424 0.043519888 -0.05380461 0.0036766613 -0.051043842 -0.02509303
-0.008330116 -0.022568388 0.0024490415 -0.036250826 -0.010247057 -0.00095141446 0.053826436 -0.008688704
-0.0031540021 -0.035570323 -0.040000472 0.04988888 0.05594243 0.011901251 -0.058735278 -0.036693845
-0.03330811 0.045699045 -0.012742024 -0.04853974 -0.043782666 -0.03214656 -0.030922242 0.033227704
-0.02117378 0.008634672 -0.039360665 -0.0010130286 -0.054763097 -0.02688017 0.00097017747 -0.029960716
0.024635559 0.036430757 -0.04339266 -0.055768672 0.015977968 -0.057528142 -0.04537547 -0.0054185446
-0.042645857 0.042377993 0.029759124 0.024526447 0.018557457 -0.055443358 0.031416252 -0.013184385
-0.047996745 0.017362908 0.027843213 0.03766462 0.05324519 -0.024911013 -0.044389468 -0.01939045
-0.052536137 0.0441593 0.0109091615 0.026420219 -0.028710678 0.01970007 -0.05536441 -0.030387985
-0.014323477 -0.030200878 -0.05000821 -0.037455667 -0.042195868 -0.042504396 0.046943944 -0.040270813
0.047573697 0.03000522 -0.022194277 -0.01643592 0.046750672 -0.051068768 0.040351395 0.01461746
0.020649621 0.011926709 0.054491635 0.02142461 -0.02649363 0.04528552 -0.013281754 -0.022292301
-0.04551444 -0.034238916 -0.026777778 -0.020347653 -0.02404557 -0.057994343 -0.0072333287 0.009609959
-0.05118018 -0.008676762 -0.003559651 -0.012797565 -0.0040232916 0.020412711 0.048321977 0.005562965
-0.03420293 -0.05408165 0.03325419 0.038993116 0.052109417 -0.01864293 0.013774629 0.054728277
-0.054538935 0.055744536 -0.049519755 -0.039132234 0.0277613 0.051516164 -0.045185026 0.018492645
0.045501567 0.04222332 -0.017059928 0.0020627433 0.00675999 -0.02778185 -0.0078750625 -0.024104154
0.015231924 0.021776196 0.034306344 -0.051077407 0.03868008 -0.05204047 0.043362197 0.037564266
00000000: 8c79 d8bc 1665 5c3d 6570 8fbc a910 293d
00000010: 239a 46bd 599e 40bd e42a b0bb b308 883c
00000020: b20d aa3a aa28 21bd 087f 86bc 258a 113d
00000030: 67b2 53bd 436e f73b e23b d2bb 37c9 393c
00000040: 6a73 40bb 8ee9 7abd c43c fe3c 35db 24bd
00000050: ffd5 96bc d0fe 76bc 52ec 04bd 8f70 583d
00000060: 82fe 19bd dffc 0c3d 1892 29bc 63c6 573d
00000070: b5df 3bbc 4031 74bb 2d39 6f3d c348 4fbd
00000080: e559 093d a21e 98bc 5f65 53bd 5336 233d
00000090: d0dd fb3c 318e f7bc 016c 24bd 5daf 46bd
000000a0: 2de8 a13c 08ed 36bd b3cc 0abc 88aa f3bb
000000b0: 7781 bf3c 8d72 5b3d 1231 36bd 4519 44bd
000000c0: be61 2c3d d57f 693d 6f3c 033d eb13 0b3d
000000d0: fd70 0f3c 7b76 dbbc 64e4 b6bc 1eb9 ebba
000000e0: f4ff 223d b0af 25bc 493a 6dbd bbd1 88bb
000000f0: 197e a3bc 6df9 2f3d cd3f 1ebd 6836 c6bc
00000100: cc4c d93c 3e54 3a3d e457 cdbc c437 6f3d
00000110: cb3a 303d 96be 453c d729 26bc 8d18 95bc
00000120: a444 013d f065 723b 7c5f 27bc ddb4 75bd
00000130: b916 bd3c f105 d23c a2e7 f3bb 00c1 8cbc
00000140: 0bcc c4bc 8986 aabc 8426 f33a 04f7 f7bb
00000150: bcbf ad3c 26b9 dcbc 8ea2 3dbd 43d1 a63c
00000160: 9b0f d53b 1936 353d 532f 983c 74f8 263d
00000170: d1db 14bd 9645 efbb 66e0 21bd 5f5a 64bd
00000180: 4eab f3ba bc22 13bd 46ac c03c 9cdd 143d
00000190: cb91 17bd 01a1 c63b 69c5 06bd aded 2a3d
000001a0: 127b 34bd 77f5 0f3d 24d6 71bc 73d7 4dbd
000001b0: bab0 273d 4e9f e0bc f9fd 47bd 8a81 1cbd
000001c0: 7859 3bbd a946 f23b aa24 993c e941 323d
000001d0: 3962 5cbd 24f4 703b 5913 51bd e68f cdbc
000001e0: 0a7b 08bc 57e1 b8bc 1980 203b bf7b 14bd
000001f0: 46e3 27bc 5868 79ba 1c79 5c3d 115b 0ebc
00000200: 60b3 4ebb 30b2 11bd 89d7 23bd 4858 4c3d
00000210: e423 653d 77fd 423c 6794 70bd 494c 16bd
00000220: 166e 08bd ec2e 3b3d ecc3 50bc 9bd1 46bd
00000230: 7455 33bd 1cac 03bd a450 fdbc c619 083d
00000240: a374 adbc 7078 0d3c a638 21bd 99c7 84ba
00000250: 454f 60bd cd33 dcbc 8253 7e3a 2d70 f5bc
00000260: 83d0 c93c 6b38 153d 80bc 31bd b16d 64bd
00000270: 3ae4 823c a1a2 6bbd a1db 39bd 0c8e b1bb
00000280: 6cad 2ebd 8c94 2d3d 68c9 f33c b0eb c83c
00000290: cf05 983c 9318 63bd 54ae 003d 5203 58bc
000002a0: 3c98 44bd a83c 8e3c 7317 e43c 3746 1a3d
000002b0: a117 5a3d 2e12 ccbc bbd1 35bd b9d8 9ebc
000002c0: 2230 57bd 62e0 343d 57bc 323c 376f d83c
000002d0: a832 ebbc 0b62 a13c cbc5 62bd 39f0 f8bc
000002e0: 04ad 6abc d567 f7bc 69d5 4cbd 1d6b 19bd
000002f0: 93d5 2cbd 1719 2ebd 4b48 403d 02f3 24bd
00000300: a3dc 423d 82cd f53c c6d0 b5bc 9fa4 86bc
00000310: a27d 3f3d 7c2d 51bd 8147 253d 127e 6f3c
00000320: 6529 a93c 3e68 433c 9f32 5f3d aa82 af3c
00000330: 2b09 d9bc 4f7d 393d b79b 59bc 589e b6bc
00000340: 596d 3abd 1b3e 0cbd 125d dbbc 1fb0 a6bc
00000350: 37fb c4bc 7a8b 6dbd 8f05 edbb 1773 1d3c
00000360: 4fa2 51bd fa28 0ebc 0949 69bb e1ac 51bc
00000370: d1d5 83bb 8f38 a73c 44ed 453d 8849 b63b
00000380: 5f18 0cbd b884 5dbd 8c35 083d 3fb7 1f3d
00000390: af70 553d 0fb9 98bc fbae 613c c22a 603d
000003a0: 3864 5fbd 6254 643d 3ad5 4abd 1f49 20bd
000003b0: aa6b e33c 9d02 533d ef13 39bd e37d 973c
000003c0: da5f 3a3d 5cf2 2c3d 43c1 8bbc 172f 073b
000003d0: e882 dd3b c396 e3bc 6806 01bc 1376 c5bc
000003e0: 528f 793c fe63 b23c cf84 0c3d 8b36 51bd
000003f0: 016f 1e3d 6328 55bd 8f9c 313d fddc 193d

bias f4 [64]
0.03401337 0.025077596 0.049709402 0.050755434 0.047315277 0.0034752507 -0.045894463 -0.13430567
-0.011472143 -0.091415256 0.030441891 0.054346792 -0.011723478 0.021288794 -0.022112086 -0.06279228
-0.09519632 0.038547043 0.016594378 -0.003097802 -0.061581727 -0.025236988 0.0451542 0.0026343197
-0.0439119 -0.051767994 -0.10063986 -0.04282262 -0.09274768 -0.0025068752 -0.0011614563 -0.13957277
-0.08171864 -0.18310373 0.018493257 0.0048562274 -0.029064247 0.019852247 0.05430996 -0.020177811
-0.04221981 -0.13474247 -0.072398916 -0.02605731 -0.037619334 0.00222593 0.058398627 0.0020494452
-0.003239185 -0.08088824 0.009823915 -0.046974957 -0.012759761 -0.086703 -0.06015367 -0.057861906
0.0017235603 -0.053062957 -0.056759756 -0.12736039 -0.027938198 -0.086705096 0.010276884 0.055553745
00000000: 9a51 0b3d 886f cd3c 169c 4b3d eee4 4f3d
00000010: aacd 413d 08c1 633b d5fb 3bbd 6d87 09be
00000020: a8f5 3bbc ec37 bbbd 4661 f93c be9a 5e3d
00000030: d513 40bc d665 ae3c 6824 b5bc 3d99 80bd
00000040: 4af6 c2bd 81e3 1d3d eff0 873c 7e04 4bbb
00000050: 1f3d 7cbd cdbd cebc 9cf3 383d 8da4 2c3b
00000060: f7dc 33bd ad0a 54bd 451c cebd c666 2fbd
00000070: 7ff2 bdbd 634a 24bb 023c 98ba 2aec 0ebe
00000080: 1a5c a7bd 8b7f 3bbe 2c7f 973c fd20 9f3b
00000090: 2518 eebc 2ea1 a23c 1f74 5e3d f04b a5bc
000000a0: aeee 2cbd eef9 09be e245 94bd 2476 d5bc
000000b0: bb16 1abd e9e0 113b 6633 6f3d fc4f 063b
000000c0: 8248 54bb bca8 a5bd 7cf4 203c d068 40bd
000000d0: 510e 51bc 5891 b1bd b263 76bd 9b00 6dbd
000000e0: 16e9 e13a 8b58 59bd eb7c 68bd c36a 02be
000000f0: a6de e4bc 7192 b1bd 6060 283c 538c 633d

weight f4 [64, 2880]
-0.016568713 -0.008450386 0.018616896 0.0041590394 0.003338547 0.005271194 -0.008450882 -0.010366367
-0.0006516753 0.0032709723 -0.012125516 -0.014529671 -0.005493924 0.0071602394 0.007141581 0.0037841534
0.015608937 0.0047774888 -0.0065253307 0.012224349 -0.008167747 -0.011402612 0.00027558507 -0.00850213
0.0057521756 -0.012877187 0.0031357247 -3.26807e-05 0.011084944 -0.018109543 -0.014057902 -0.0045171585
0.0031447285 0.010688381 -0.0039311475 0.0011402979 -0.0176098 0.011105137 0.016670864 0.012953091
-0.013042923 -0.0016414404 -0.00034667418 -0.0048418418 0.0065338276 0.00927422 -0.00868452 0.014750988
0.013146382 -0.0148882065 -0.0056290925 -0.0008000968 0.016850166 -0.017228099 -0.0007243285 -0.012432997
-0.0078046587 0.013429353 -0.0016893828 -0.0059835915 -0.005349116 -0.011494603 -0.01513466 0.00079299323
-0.011110967 -0.009966213 0.00202405 -0.014198688 -0.00993834 -0.01676031 0.01726824 -0.00963005
0.0014110251 -0.0116384085 -0.018482452 -0.01642955 -0.0019165794 0.001136574 -0.01687698 0.008040243
0.011884166 -0.016935857 0.006307707 -0.0011456485 0.017240865 0.00081617886 0.009445483 0.018231435
0.001921387 -0.017901398 0.009831241 -0.013944624 0.00015497931 0.005824521 -0.010238024 0.016553504
0.0027442463 -0.014760485 0.018112784 0.0074310834 0.015491214 0.0009395128 0.0026096995 0.016058583
-0.011261634 -0.0147283245 -0.005862681 0.012109077 0.018191274 -0.017712073 0.00063140225 -0.012345777
-0.00973494 0.006293052 -0.014309585 -0.0025039453 -0.014369538 -0.0046850997 -0.005509174 -0.008823803
0.0018359658 0.014561097 0.014074333 0.016619895 -0.0097004 -0.0035994004 0.000727077 0.019402843
0.009342476 -0.013600775 -0.01736899 -0.00097250915 -0.005523621 -0.014740111 -0.009447826 -0.013152914
-0.010502763 0.001729838 0.00035192235 -0.017863419 -0.0055741514 0.008058248 -0.023762872 -0.022314738
-0.0035089974 0.0073828106 0.0016024873 0.0037616228 0.011367281 0.004653975 -0.0114734955 0.0037648678
-0.01286505 0.013063804 0.014211026 0.010631918 0.007131429 0.01720608 0.0013074592 -0.004219734
-0.0038587286 0.008198832 -0.015226825 -0.00986646 -0.0015408393 0.010953201 -0.0012887935 0.014366094
-0.011427625 0.011111584 0.00037831446 -0.016449789 -0.01009232 0.0062105902 -0.008702224 6.0776023e-05
0.017560715 0.022357024 0.014302485 -0.0067103077 0.008617594 0.0078205485 0.016816497 0.021956945
0.017926047 0.017036512 -0.0073636104 0.00028139076 0.012791539 -0.011336391 -0.010980914 0.01986026
0.008988336 -0.0059507377 0.0012567579 -0.012288661 0.010392737 -0.011698244 0.0011123895 0.017666046
-0.011523487 -0.026614662 0.014903738 0.034198124 0.020669794 0.010431523 0.021064602 -0.009291517
-0.005376481 -0.0043989806 0.020572396 0.0075715245 -0.004365982 0.008165236 0.026930105 -0.0069085443
0.003353897 0.010939152 0.048936386 0.039347243 -0.004908443 0.017128143 0.008976642 0.023426047
-0.0030632105 -0.017726347 0.009494507 -0.017008746 0.024204433 0.017387195 -0.016848866 0.009583737
0.002211726 0.017442774 0.009428637 1.8995048e-05 0.0054712216 0.00753144 0.00070790603 -0.009284332
0.0002143775 -0.010800214 0.013602281 0.008264476 -0.014526408 0.0014674014 -0.020358616 -0.023723863
0.013462037 0.02170555 -0.0062640836 0.0008405618 -0.0013912141 0.0071508507 0.01096484 -0.0024221118
00000000: 1cbb 87bc 7d73 0abc 7682 983c 8d48 883b
00000010: 86cb 5a3b fbb9 ac3b 9175 0abc b2d7 29bc
00000020: 30d5 2aba cf5d 563b 1aaa 46bc db0d 6ebc
00000030: 6006 b4bb 71a0 ea3b ec03 ea3b 8fff 773b
00000040: a0bc 7f3c 7b8c 9c3b 71d2 d5bb a348 483c
00000050: 04d2 05bc 05d2 3abc 677c 9039 854c 0bbc
00000060: bf7c bc3b d6fa 52bc bb80 4d3b a212 09b8
00000070: a09d 353c 775a 94bc 1d53 66bc ac04 94bb
00000080: ca17 4e3b 521e 2f3c dbd0 80bb 0c76 953a
00000090: 6d42 90bc 52f2 353c 5691 883c 3439 543c
000000a0: fcb1 55bc 9a25 d7ba d2c1 b5b9 50a8 9ebb
000000b0: b819 d63b e6f2 173c 8449 0ebc 21ae 713c
000000c0: ec63 573c aaed 73bc 4074 b8bb 96bd 51ba
000000d0: 5c09 8a3c f121 8dbc dde0 3dba c5b3 4bbc
000000e0: 39be ffbb ca06 5c3c 486e ddba 0112 c4bb
000000f0: a347 afbb dc53 3cbc 5df7 77bc e0e0 4f3a
00000100: c60a 36bc 5449 23bc eda5 043b 9da1 68bc
00000110: 6bd4 22bc eb4c 89bc 2076 8d3c 5bc7 1dbc
00000120: 25f2 b83a 06af 3ebc 8368 97bc 4397 86bc
00000130: bc35 fbba 18f9 943a 9841 8abc 39bb 033c
00000140: ceb5 423c 11bd 8abc e2b0 ce3b 9629 96ba
00000150: b73c 8d3c d6f4 553a 3ac1 1a3c 175a 953c
00000160: 0dd7 fb3a f4a5 92bc 3713 213c fe77 64bc
00000170: f181 2239 a0db be3b 63bd 27bc 379b 873c
00000180: d0d8 333b f6d5 71bc 4361 943c 7280 f33b
00000190: dcce 7d3c a349 763a 7e07 2b3b 4a8d 833c
000001a0: b782 38bc 124f 71bc bc1b c0bb 2665 463c
000001b0: de05 953c e918 91bc b084 253a f145 4abc
000001c0: 4c7f 1fbc f235 ce3b c072 6abc 3b19 24bb
000001d0: 366e 6bbc 7785 99bb 4d86 b4bb b691 10bc
000001e0: caa4 f03a ab91 6e3c 0898 663c 7226 883c
000001f0: 6dee 1ebc ebe3 6bbb 5099 3e3a b6f2 9e3c
00000200: 2f11 193c c9d5 5ebc 6a49 8ebc fcef 7eba
00000210: 7eff b4bb 8280 71bc 0ecb 1abc 527f 57bc
00000220: c813 2cbc bbbb e23a 3882 b839 4e56 92bc
00000230: 5fa7 b6bb be06 043c 5baa c2bc 66cd b6bc
00000240: 35f7 65bb 81eb f13b 8d0a d23a 8f85 763b
00000250: d53d 3a3c 5f80 983b 54fb 3bbc 00bc 763b
00000260: eec7 52bc 9109 563c 5dd5 683c 7f31 2e3c
00000270: c3ae e93b c4f3 8c3c 0d5f ab3a b245 8abb
00000280: b9e2 7cbb 6554 063c ef79 79bc efa6 21bc
00000290: fdf5 c9ba 0e75 333c bcec a8ba c45f 6b3c
000002a0: ef3a 3bbc 5c0d 363c 8258 c639 b5c1 86bc
000002b0: 425a 25bc 3582 cb3b c693 0ebc c2e9 7e38
000002c0: 7ddb 8f3c 1426 b73c f854 6a3c 24e2 dbbb
000002d0: cf30 0d3c c221 003c c0c2 893c 0ddf b33c
000002e0: a5d9 923c 2890 8b3c 714a f1bb a187 9339
000002f0: 9a93 513c 45bc 39bc 4be9 33bc fcb1 a23c
00000300: d043 133c 68fe c2bb ccb9 a43a 6156 49bc
00000310: 4c46 2a3c fea9 3fbc 99cd 913a 62b8 903c
00000320: 02cd 3cbc fe06 dabc cf2e 743c 5513 0c3d
00000330: b353 a93c fbe8 2a3c ac8f ac3c 723b 18bc
00000340: 312d b0bb 5325 90bb 7187 a83c 8d1a f83b
00000350: 8310 8fbb 7bc7 053c 869c dc3c 1261 e2bb
00000360: 0ecd 5b3b 213a 333c 8571 483d 932a 213d
00000370: 01d7 a0bb 5250 8c3c c412 133c fbe7 bf3c
00000380: 25c0 48bb d836 91bc d98e 1b3c ed55 8bbc
00000390: 6048 c63c 976f 8e3c a206 8abc 1b05 1d3c
000003a0: 9bf2 103b 26e4 8e3c 927a 1a3c 8e57 9f37
000003b0: ef47 b33b 4cca f63b c592 393a 501d 18bc
000003c0: 86ca 6039 61f3 30bc 1adc 5e3c ba67 073c
000003d0: 2c00 6ebc d255 c03a 1dc7 a6bc 8c58 c2bc
000003e0: e08f 5c3c d6cf b13c f142 cdbb 2659 5c3a
000003f0: 6659 b6ba af51 ea3b dfa5 333c 4bbc 1ebb

bias f4 [64]
0.008988895 0.014273379 -0.010911642 0.016236654 -0.014897714 0.0015572914 0.00018879861 0.023028316
0.017653544 -0.0041025914 -0.010486824 -0.0025322973 -0.0078846 0.030801607 0.033911042 0.011066803
-0.0021921846 -0.0012555461 -0.00043638956 0.016225599 0.015099765 0.0015558341 -0.0182217 0.009449217
-0.019538647 0.0146822715 -0.00010700983 -0.006773816 0.018675007 -0.009727887 0.007600919 0.0058027115
-0.0020165562 0.0041606072 -0.012594927 -0.009778185 -0.021170609 -0.016588131 -0.005108849 0.014388201
-0.009556435 -0.019401733 -0.0107940035 0.019164082 0.002742495 -0.01063218 0.00667179 -0.00834173
-0.0008874154 -0.013834793 0.0027231215 -0.0012739735 0.023573184 0.010577825 0.0028651892 -0.00103751
-0.0057077208 0.0123846065 -0.004238797 -0.018967591 0.01875261 0.019201348 0.0077755554 0.0036454333
00000000: 2946 133c e4da 693c bec6 32bc bb02 853c
00000010: 8b15 74bc 071e cc3a 3ef8 4539 e1a5 bc3c
00000020: 2a9e 903c 086f 86bb eed0 2bbc e6f4 25bb
00000030: 692e 01bc a753 fc3c 4ee6 0a3d 8951 353c
00000040: c1aa 0fbb 2391 a4ba 37cb e4b9 8ceb 843c
00000050: 0165 773c 21ed cb3a ad45 95bc e3d0 1a3c
00000060: 830f a0bc e98d 703c 776a e0b8 e3f6 ddbb
00000070: 54fc 983c b761 1fbc 2111 f93b ac24 be3b
00000080: 3328 04bb b455 883b f45a 4ebc ae34 20bc
00000090: fc6d adbc d5e3 87bc 2268 a7bb 7dbc 6b3c
000000a0: 9892 1cbc 62f0 9ebc 55d9 30bc fefd 9c3c
000000b0: 6ebb 333b 9832 2ebc 089f da3b c0ab 08bc
000000c0: 70a1 68ba 54ab 62bc 6676 323b 75fb a6ba
000000d0: 8d1c c13c 9d4e 2d3c e6c5 3b3b 0ffd 87ba
000000e0: d507 bbbb cee8 4a3c 9be5 8abb ec61 9bbc
000000f0: 139f 993c 254c 9d3c 16ca fe3b 39e8 6e3b

weight f4 [20, 64]
0.09765955 0.029020512 -0.051194232 0.06916145 0.0048863706 0.078979135 -0.21349968 0.41995183
0.3330249 0.053944353 -0.13791262 0.015320233 0.028925553 -0.29308015 -0.053377315 0.22297274
0.007365865 -0.042728785 -0.16532075 0.11702438 -0.15403906 -0.06707428 -0.22171761 -0.18739827
0.008258052 0.011019616 0.011693387 -0.29712915 -0.021342121 0.22899275 -0.2901681 -0.28610066
0.036981303 0.25943696 -0.09737025 0.003059054 0.052663676 -0.11392091 -0.0064219004 -0.12906465
-0.12192184 0.026715385 0.034384277 -0.32388467 -0.06900878 -0.28888935 0.051643766 0.1583479
-0.019060792 0.0780828 -0.26539314 -0.05873503 0.037679832 0.06321776 0.097121455 0.09573145
-0.047380064 0.012841773 0.21073131 -0.05403904 -0.021001473 0.25717285 0.0069701313 -0.19914901
-0.055426225 -0.0124517735 -0.064264715 0.18387946 0.053293623 -0.119817965 -0.0006796687 0.043503396
-0.27134758 0.15457213 -0.050789554 -0.044674996 0.12483624 0.28821608 0.3604928 -0.022993442
0.07331682 0.16157141 0.2172034 0.050449505 0.2824548 -0.010872637 -0.30088344 0.5944939
-0.033387125 -0.013186929 -0.13320464 -0.25673696 -0.069596134 -0.25648332 0.12357571 -0.31725508
0.021163335 -0.26724482 -0.0637433 -0.066822186 -0.082341045 -0.012390066 0.16830133 0.048089083
-0.0048159244 -0.004872344 -0.104827225 0.10622859 -0.047935605 0.2890308 -0.03276262 -0.14679962
-0.0048166225 -0.016675346 0.12945642 0.017643359 0.035141427 -0.07262169 0.14867479 -0.11661784
-0.011416884 0.010856833 -0.2553215 0.123082355 -0.0030109382 -0.24838345 -0.003647658 0.008036287
0.09204752 -0.036136463 -0.026261447 0.2951917 0.035165444 -0.09023529 -0.22151092 0.001545973
-0.08934835 0.06299186 -0.1803323 0.07586029 0.057504028 -0.024077948 -0.08240055 0.20106788
0.2087559 -0.106821984 0.31367654 0.04767736 -0.10188935 -0.019581156 0.23325369 -0.14094065
-0.05082121 0.00011381448 -0.11392508 0.2494495 0.023100786 0.11443311 -0.2629974 -0.28906316
0.04753234 -0.068994865 0.095758215 -0.040681276 0.066395864 0.094000824 -0.1724156 0.21705961
0.1069965 0.012463125 0.05583272 0.14088397 -0.008947204 -0.22240545 -0.031213088 0.085021146
0.07933562 -0.016030114 -0.063507855 0.023166848 0.0502563 0.015687872 0.13921377 -0.092844516
-0.08751797 0.029382106 0.24811317 -0.15965195 -0.024853125 -0.16327286 -0.052396122 0.07446998
-0.09300855 0.010272967 0.022345329 0.20273438 0.07992302 0.11330528 0.19969308 -0.19446966
-0.17268977 -0.1621963 0.18530114 -0.030623259 -0.027009139 0.29638118 -0.21789283 -0.060992755
-0.022305816 -0.20485118 0.30091324 -0.10683104 -0.1766682 -0.013743144 -0.25722623 -0.041553646
-0.016709609 0.016816987 -0.10045795 0.26377466 -0.0047199065 0.32091603 -0.21871938 0.28497
0.0057738377 -0.16596983 0.07642146 -0.027821615 -0.04257111 0.08966585 0.22230837 -0.064595535
0.08736388 0.021703538 0.09414533 0.08489532 -0.036544897 -0.11525327 -7.3586605e-05 -0.0057746437
0.028963592 -0.08709778 -0.15325469 0.01148493 -0.06447776 -0.08378276 -0.08221214 0.16213576
-0.03944243 0.00074964116 0.3089428 -0.23701435 0.012084018 -0.29302406 0.010874854 0.038449563
00000000: bb01 c83d 6dbc ed3c 0bb1 51bd 85a4 8d3d
00000010: d91d a03b d0bf a13d a99f 5abe ed03 d73e
00000020: 3d82 aa3e c1f4 5c3d f738 0dbe b701 7b3c
00000030: 48f5 ec3c 9a0e 96be 2ca2 5abd f752 643e
00000040: 5b5d f13b 6104 2fbd d849 29be 7aaa ef3d
00000050: 6abc 1dbe 3d5e 89bd f109 63be 55e5 3fbe
00000060: c84c 073c 9f8b 343c 9f95 3f3c 5021 98be
00000070: acd5 aebc 137d 6a3e ea90 94be c97b 92be
00000080: b579 173d ecd4 843e 0e6a c7bd 697a 483b
00000090: deb5 573d 5e4f e9bd ce6e d2bb 8629 04be
000000a0: 28b2 f9bd 39da da3c 87d6 0c3d 36d4 a5be
000000b0: 7a54 8dbd 4ee9 93be 6a88 533d f425 223e
000000c0: 6125 9cbc e0e9 9f3d 9ce1 87be 2594 70bd
000000d0: 2b56 1a3d 5078 813d 9de7 c63d da0e c43d
000000e0: 9911 42bd 4d66 523c f3c9 573e 0a58 5dbd
000000f0: 480b acbc 29ac 833e b365 e43b b8ed 4bbe
00000100: 9c06 63bd 8602 4cbc 389d 83bd e64a 3c3e
00000110: 6a4a 5a3d 1f63 f5bd cb2b 32ba 9e30 323d
00000120: 12ee 8abe 2848 1e3e b508 50bd 21fd 36bd
00000130: 25aa ff3d 0f91 933e 8392 b83e be5c bcbc
00000140: 2127 963d fa72 253e 916a 5e3e 24a4 4e3d
00000150: ea9d 903e 2523 32bc 650d 9abe c130 183f
00000160: f0c0 08bd fd0d 58bc cc66 08be 0773 83be
00000170: 6b88 8ebd c851 83be 4315 fd3d 426f a2be
00000180: bb5e ad3c 50d4 88be d98b 82bd 12da 88bd
00000190: 6ca2 a8bd b4ff 4abc 2f57 2c3e 0ff9 443d
000001a0: e7ce 9dbb 2fa8 9fbb a8af d6bd 608e d93d
000001b0: 2058 44bd d8fb 933e 1932 06bd a452 16be
000001c0: c2d4 9dbb bc9a 88bc 3990 043e ce88 903c
000001d0: 75f0 0f3d aeba 94bd 343e 183e 56d5 eebd
000001e0: e20d 3bbc dce0 313c 80b9 82be 9a12 fc3d
000001f0: 2953 45bb 3b58 7ebe 8c0d 6fbb a1aa 033c
00000200: 6983 bc3d d403 14bd 3f22 d7bc 5e23 973e
00000210: a409 103d 48cd b8bd c2d3 62be 3fa2 ca3a
00000220: 45fc b6bd e001 813d 08a9 38be a45c 9b3d
00000230: 5889 6b3d 1e3f c5bc 9fc1 a8bd bde4 4d3e
00000240: 1bc4 553e 7cc5 dabd 369a a03e 5649 433d
00000250: 5dab d0bd a968 a0bc 0eda 6e3e bf52 10be
00000260: e729 50bd afaf ee38 8d51 e9bd b16f 7f3e
00000270: dc3d bd3c e85b ea3d 98a7 86be 1600 94be
00000280: 45b1 423d 2e4d 8dbd e21c c43d 69a1 26bd
00000290: 8efa 873d 8183 c03d b78d 30be e044 5e3e
000002a0: fb20 db3d 2332 4c3c dab0 643d e343 103e
000002b0: 4b97 12bc 41be 63be 97b2 ffbc 911f ae3d
000002c0: b77a a23d 9651 83bc 6810 82bd 67c8 bd3c
000002d0: 8dd9 4d3d da83 803c 0e8e 0e3e 4425 bebd
000002e0: 9f3c b3bd beb2 f03c 6111 7e3e cd7b 23be
000002f0: c898 cbbc 0031 27be 519d 56bd b883 983d
00000300: 447b bebd f24f 283c 8d0d b73c 9a99 4f3e
00000310: aeae a33d 990c e83d 587c 4c3e 0e23 47be
00000320: 96d5 30be c916 26be 95bf 3d3e a1dd fabc
00000330: 4542 ddbc 46bf 973e 4c1f 5fbe 8ad3 79bd
00000340: b0ba b6bc 82c4 51be 4d11 9a3e 3bca dabd
00000350: 82e8 34be ed2a 61bc 28b3 83be 2834 2abd
00000360: 97e2 88bc c7c3 893c e6bc cdbd 790d 873e
00000370: 72a9 9abb 1b4f a43e f9f7 5fbe 96e7 913e
00000380: 7632 bd3b fff3 29be db82 9c3d 28ea e3bc
00000390: 0b5f 2ebd bba2 b73d cea4 633e aa4a 84bd
000003a0: d5eb b23d 9ecb b13c 44cf c03d 99dd ad3d
000003b0: 1ab0 15bd e809 ecbd 8252 9ab8 3939 bdbb
000003c0: 0e45 ed3c 5260 b2bd ccee 1cbe 4a2b 3c3c
000003d0: ea0c 84bd 4c96 abbd d75e a8bd eb06 263e
000003e0: 638e 21bd 9183 443a c02d 9e3e e4b3 72be
000003f0: 0cfc 453c 4007 96be 722c 323c 4a7d 1d3d

bias f4 [20]
0.06295228 0.0988153 -0.0504396 -0.054650266 -0.11824149 0.114688925 0.050740737 0.10869298
0.19253545 -0.026133262 -0.078321934 0.13564798 -0.04371613 -0.068680435 0.039257158 0.016926993
-0.16915295 -0.07565173 0.28210273 0.013800306
00000000: 20ed 803d ad5f ca3d c199 4ebd f5d8 5fbd
00000010: 9828 f2bd 07e2 ea3d 85d5 4f3d 6d9a de3d
00000020: 0328 453e 6c15 d6bc 4067 a0bd 4ee7 0a3e
00000030: af0f 33bd 54a8 8cbd 1dcc 203d 7aaa 8a3c
00000040: 6e36 2dbe 4bef 9abd c56f 903e ae1a 623c
